…
.keras.layers.Dropout(rate=0.2), tf.keras.layers.Dense(N_FEATURES, kernel_regularizer=tf.keras.regularizers.l2(0.0001)), tf.keras.layers.Dropout(rate=0.2), tf.keras.layers.Dense(train_generator.num_classes, kernel_regularizer=tf.keras.regularizers.l2(0.0001)) ]) model.build((None,)+IMAGE_SIZE+(3,)) model.summary() . Building model with https://tfhub.dev/google/bit/m-r50x3/1 Model: &#34;sequential_1&#34; _________________________________________________________________ Layer (type) Output Shape Param # ================================================================= keras_layer_1 (KerasLayer) (None, 6144) 211174080 _________________________________________________________________ dropout_2 (Dropout) (None, 6144) 0 _________________________________________________________________ dense_2 (Dense) (None, 256) 1573120 _________________________________________________________________ dropout_3 (Dropout) (None, 256) 0 _________________________________________________________________ dense_3 (Dense) (None, 7) 1799 ================================================================= Total params: 212,748,999 Trainable params: 1,574,919 Non-trainable params: 211,174,080 _________________________________________________________________ . lr = 0.003 * BATCH_SIZE / 512 SCHEDULE_LENGTH = 500 SCHEDULE_BOUNDARIES = [200, 300, 400] # Decay learning rate by a factor of 10 at SCHEDULE_BOUNDARIES. lr_schedule = tf.keras.
…
